borrow_rate_model.onnx (onnx, 7205 bytes, 7 tensors)

layers.0.weight f4 [16, 83]
-0.17731385 -0.25676963 -0.13417296 0.2116811 -0.13154314 0.2115745 -0.06751564 -0.09696015
-0.14182396 -0.16001247 -0.06010609 -0.28068104 0.022522165 0.03189806 -0.14156108 -0.16431731
-0.295497 0.015456188 0.0657203 -0.020296523 -0.13273925 -0.07245084 0.046261467 -0.047111202
0.027908526 0.029309312 0.10514162 -0.045245618 0.10388402 0.055239756 0.03604975 0.09102399
0.14227499 -0.00434769 -0.15823512 0.018939923 0.08525607 0.008740022 0.007758552 -0.00021755924
0.088392176 0.10391722 -0.12569398 -0.0019251745 -0.057570968 -0.06875397 -0.13871022 0.027096348
-0.1227425 0.06843528 -0.052980427 0.07866857 0.12142528 0.10775539 0.0066325446 0.03570468
0.10056212 0.11724727 0.096358456 0.059866764 0.1361907 -0.094873756 -0.0032909012 0.008880396
-0.07808909 -0.012169535 0.030887317 0.05144482 0.055500027 0.0046115825 0.18177363 -0.0101764845
0.06317722 0.009333695 0.1179941 -0.031807028 0.014483703 0.024695558 -0.10513286 0.014317543
-0.056801654 0.01938665 -0.28334698 -0.13546781 -0.08218206 -0.061056975 0.13152832 -0.022716409
0.047125224 -0.08333051 0.0185722 -0.12353252 -0.08319358 -0.049565885 -0.073014565 -0.082636595
-0.09937711 -0.15869588 0.015811551 -0.05757278 0.18929435 0.03850105 0.013296765 0.056270838
0.32502076 0.04435208 0.07783377 0.040915605 -0.07886501 -0.089797266 0.0023475294 0.21351796
0.1143061 0.08175895 0.122721024 0.1348721 -0.029206796 -0.06251015 0.22755377 0.0034984085
0.17744793 0.08850073 0.0042877565 -0.039537165 0.032381844 0.07129712 0.026755966 -0.052064847
0.070596464 -0.06038828 -0.08053414 0.09215708 0.27963945 0.2052918 0.16278242 0.18161319
0.16995598 0.18850636 -0.013303 0.18737172 0.048318304 0.17352349 0.14952725 0.16235092
-0.06736582 -0.07334087 0.09623352 0.066691585 0.11397481 -0.04403882 0.11808466 0.0018448472
0.025742259 0.05479167 0.17093271 0.03403196 0.05494769 0.19786471 -0.09152883 -0.1209831
-0.0679358 0.032750342 0.053748697 0.07220648 -0.07635215 -0.06955789 -0.09006382 -0.16883484
0.024590228 -0.0036315215 -0.025316417 0.16355792 -0.003237678 -0.13990137 0.021002162 -0.047219496
-0.079916105 0.0916311 0.040143684 -0.12404918 0.13427688 0.039427895 -0.064085394 -0.07889473
0.15905441 0.047186468 -0.19220543 -0.03919609 0.01294521 -0.073353715 -0.07564533 0.014739596
0.14116545 0.110424116 0.02885984 -0.060673576 -0.0052474714 -0.04075256 0.024887688 -0.003538101
0.14646314 -0.09857747 -0.07964339 0.10645564 0.066102915 0.0115943 0.11361955 -0.083864115
-0.22002389 -0.08581204 -0.093552716 -0.112684906 -0.20772019 -0.028870225 -0.068041556 -0.016091742
0.061366595 -0.11933133 0.086028084 -0.08351303 -0.01922441 -0.13035631 -0.07080018 0.07158733
-0.08836654 -0.0016133251 0.11082309 0.025933532 -0.007906304 -0.1254864 -0.021520449 -0.097152896
-0.14585976 -0.06860292 0.07724999 -0.12324169 0.006585991 -0.05478087 0.038441606 -0.09055156
-0.10796277 0.019523555 -0.0033291366 0.12981953 0.119165026 0.1505672 0.20276646 0.19412775
0.24680647 -0.047943294 0.07736524 -0.015698282 -0.10593513 -0.0002474016 0.04316174 0.062094778
00000000: c391 35be 4f77 83be a364 09be eec2 583e
00000010: 3fb3 06be fca6 583e a445 8abd 0b93 c6bd
00000020: 4d3a 11be 4fda 23be ce31 76bd 6db5 8fbe
00000030: 6780 b83c 8aa7 023d 63f5 10be cc42 28be
00000040: 624b 97be f33b 7d3c 5d98 863d e544 a6bc
00000050: ccec 07be 1b61 94bd aa7c 3d3d adf7 40bd
00000060: 6ca0 e43c 151a f03c 7d54 d73d 7853 39bd
00000070: 25c1 d43d 1543 623d e7a8 133d c96a ba3d
00000080: 89b0 113e 1177 8ebb 6308 22be e627 9b3c
00000090: bc9a ae3d 4f32 0f3c 743b fe3b 9d20 64b9
000000a0: f506 b53d 8dd2 d43d ecb5 00be 2356 fcba
000000b0: 89cf 6bbd e2ce 8cbd 0d0a 0ebe 29f9 dd3c
000000c0: 6b60 fbbd cc27 8c3d 0102 59bd fd1c a13d
000000d0: d1ad f83d dcae dc3d d155 d93b 123f 123d
000000e0: 83f3 cd3d 561f f03d 9557 c53d da36 753d
000000f0: 9375 0b3e 2c4d c2bd 29ac 57bb 157f 113c
00000100: 2ced 9fbd bb62 47bc 6607 fd3c ceb7 523d
00000110: ff53 633d c21c 973b de22 3a3e 45bb 26bc
00000120: 0f63 813d 5bec 183c e4a6 f13d 1648 02bd
00000130: 0e4d 6d3c 574e ca3c e64f d7bd 2194 6a3c
00000140: daa8 68bd c0d0 9e3c db12 91be 13b8 0abe
00000150: 114f a8bd e116 7abd 5caf 063e c317 babc
00000160: 6106 413d 30a9 aabd ba24 983c 9efe fcbd
00000170: 6561 aabd 9905 4bbd a988 95bd 603d a9bd
00000180: 3a86 cbbd 2c81 22be 3a87 813c 6fd1 6bbd
00000190: 61d6 413e 47b3 1d3d adda 593c 407c 663d
000001a0: 1f69 a63e 87aa 353d 5067 9f3d 1f97 273d
000001b0: fa83 a1bd a1e7 b7bd 02d9 193b 74a4 5a3e
000001c0: 5119 ea3d 3d71 a73d 2955 fb3d e91b 0a3e
000001d0: 1743 efbc 5205 80bd db03 693e 8e45 653b
000001e0: e9b4 353e df3f b53d 4f80 8c3b b9f1 21bd
000001f0: d3a2 043d 3904 923d 542f db3c f341 55bd
00000200: e194 903d b359 77bd 15ef a4bd dabc bc3d
00000210: e72c 8f3e 0338 523e 6fb0 263e cff8 393e
00000220: f108 2e3e d007 413e d3f4 59bc 5fde 3f3e
00000230: 6ae9 453d 24b0 313e ac1d 193e 523f 263e
00000240: 17f7 89bd bd33 96bd 1416 c53d 9995 883d
00000250: a06b e93d 0d62 34bd 5fd6 f13d cdce f13a
00000260: 6ee1 d23c 3b6d 603d fc08 2f3e 1965 0b3d
00000270: d410 613d 0c9d 4a3e 7873 bbbd fdc5 f7bd
00000280: ed21 8bbd 3925 063d 9827 5c3d fee0 933d
00000290: 845e 9cbd 5e74 8ebd 6173 b8bd 0ae3 2cbe
000002a0: 7271 c93c d2fe 6dbb 6064 cfbc ba7b 273e
000002b0: 392f 54bb 4e42 0fbe ba0c ac3c 3b69 41bd
000002c0: 0eab a3bd 16a9 bb3d b46d 243d 7f0d febd
000002d0: e17f 093e 257f 213d 343f 83bd 8f93 a1bd
000002e0: 29df 223e 9946 413d 80d1 44be 148c 20bd
000002f0: 2518 543c 793a 96bd f0eb 9abd 597e 713c
00000300: ad8d 103e 0a26 e23d 796b ec3c db84 78bd
00000310: fbf2 abbb 28ec 26bd 44e1 cb3c 7cdf 67bb
00000320: 6ffa 153e fce2 c9bd 131c a3bd 6a05 da3d
00000330: f760 873d 05f6 3d3c 5eb1 e83d f3c0 abbd
00000340: f14d 61be 39be afbd 9198 bfbd 58c7 e6bd
00000350: 9ab4 54be 4081 ecbc 5f59 8bbd d4d2 83bc
00000360: 8a5b 7b3d fc63 f4bd 7e2f b03d e108 abbd
00000370: 837c 9dbc 207c 05be afff 90bd 619c 923d
00000380: 84f9 b4bd 3576 d3ba 37f7 e23d 8f72 d43c
00000390: 7189 01bc 827f 00be a74b b0bc 19f8 c6bd
000003a0: 435c 15be b07f 8cbd 3e35 9e3d 2466 fcbd
000003b0: 4ccf d73b e861 60bd f274 1d3d 1973 b9bd
000003c0: 961b ddbd ddef 9f3c a52d 5abb 69ef 043e
000003d0: cb0c f43d 4a2e 1a3e 03a2 4f3e 6dc9 463e
000003e0: d6ba 7c3e 3060 44bd ab71 9e3d af99 80bc
000003f0: 84f4 d8bd aeb5 81b9 5dca 303d 1857 7e3d

layers.0.bias f4 [16]
0.18366036 -0.0858039 0.01701192 0.11486912 0.1378997 -0.09845416 0.19027728 0.11851654
0.29748482 0.035983197 0.08327099 0.092240736 0.03457188 0.28983837 0.21841191 -0.09031964
00000000: 7611 3c3e f5b9 afbd 955c 8b3c 8040 eb3d
00000010: 9435 0d3e 56a2 c9bd 0cd8 423e cdb8 f23d
00000020: ee4f 983e 1e63 133d fb89 aa3d b6e8 bc3d
00000030: 3e9b 0d3d b265 943e 5fa7 5f3e 81f9 b8bd

layers.2.weight f4 [8, 16]
-0.20940979 -0.18599248 0.17679761 0.20079128 0.040694468 -0.07080821 -0.095442675 -0.12423835
0.35526896 0.19354711 -0.15688747 0.20678659 -0.12998107 0.08943738 0.08185249 -0.14584336
0.19761926 0.05734462 0.24484384 -0.105958 -0.06665954 -0.018653953 0.08909782 0.20505185
-0.13154842 -0.22250542 -0.15454403 -0.057335276 -0.17319627 -0.16938962 0.12650266 0.18052132
0.2773647 0.07059831 -0.24497467 0.08907143 0.42851236 -0.14711185 0.27635518 -0.27624926
0.37294436 0.3706076 -0.17722434 0.2937645 -0.13984282 0.28970188 0.13268004 0.22937226
0.14284253 0.09265997 -0.11377404 0.3286358 0.18057705 -0.23803289 0.0033008263 -0.48043624
0.27497998 0.22909552 -0.22123794 0.119187996 0.17071865 -0.33733773 0.2426906 0.09838436
-0.063241035 -0.11134126 0.37229362 -0.34757808 0.14325568 -0.13682732 0.08108295 0.4480453
-0.3111519 0.21502106 0.22810294 -0.097358026 0.19351156 0.2886761 -0.122242816 -0.15764757
0.30155388 -0.034607634 -0.19164884 0.14789549 0.45728344 0.041863795 0.35739264 -0.1065532
0.3617187 0.2666647 -0.27005723 0.20161279 -0.026832469 -0.071245946 0.3425187 -0.0123344995
0.05726172 -0.22518155 -0.1227213 0.17894103 0.23152092 -0.063170806 0.42730364 0.16032995
0.3107902 0.2535552 -0.26110393 0.32282305 0.04602707 0.17168522 0.38234752 0.10181017
0.03208005 -0.07167405 -0.2776212 0.18174045 0.15209061 -0.004196426 -0.27422988 0.048527665
-0.052273232 -0.19082475 0.034706675 0.012595025 -0.2626477 0.10321965 -0.23124272 0.041100945
00000000: 856f 56be d074 3ebe 6f0a 353e 3b9c 4d3e
00000010: 3eaf 263d e503 91bd 7377 c3bd ad70 febd
00000020: d0e5 b53e 3731 463e 1ca7 20be ddbf 533e
00000030: c219 05be f22a b73d 47a2 a73d f657 15be
00000040: b45c 4a3e 31e2 6a3d 58b8 7a3e 8200 d9bd
00000050: cc84 88bd 2dd0 98bc eb78 b63d 1df9 513e
00000060: a1b4 06be 76d8 63be ca40 1ebe 65d8 6abd
00000070: 5d5a 31be 7974 2dbe ea89 013e 95da 383e
00000080: bf02 8e3e d995 903d a4da 7abe 156b b63d
00000090: f965 db3e 7da4 16be 6d7e 8d3e 8b70 8dbe
000000a0: 90f2 be3e 48c0 bd3e 4c7a 35be 4d68 963e
000000b0: f532 0fbe ce53 943e 47dd 073e 90e0 6a3e
000000c0: 5045 123e 83c4 bd3d 5d02 e9bd f442 a83e
000000d0: 31e9 383e e5be 73be ad52 583b bdfb f5be
000000e0: 2dca 8c3e 0498 6a3e 338c 62be d618 f43d
000000f0: dfd0 2e3e 88b7 acbe e283 783e bd7d c93d
00000100: 8484 81bd e306 e4bd 459d be3e c1f5 b1be
00000110: 9eb1 123e 761c 0cbe d10e a63d 3266 e53e
00000120: 4d4f 9fbe 7b2e 5c3e d193 693e a563 c7bd
00000130: e527 463e 5bcd 933e 715a fabd 5d6e 21be
00000140: 4565 9a3e bcc0 0dbd 983f 44be ea71 173e
00000150: 0e21 ea3e 5f79 2b3d 2bfc b63e 9038 dabd
00000160: 3233 b93e 4788 883e f144 8abe 9573 4e3e
00000170: c4cf dbbc 65e9 91bd 9c5e af3e a416 4abc
00000180: 448b 6a3d fe95 66be 4e55 fbbd 513c 373e
00000190: d213 6d3e b25f 81bd 8bc7 da3e 892d 243e
000001a0: e51f 9f3e fdd1 813e 6aaf 85be 1049 a53e
000001b0: e286 3c3d 40ce 2f3e 0ec3 c33e da81 d03d
000001c0: 5f66 033d d8c9 92bd 5e24 8ebe 2b1a 3a3e
000001d0: a4bd 1b3e 2c82 89bb dc67 8cbe f2c4 463d
000001e0: 751c 56bd 9067 43be 9628 0e3d 5d5b 4e3c
000001f0: c279 86be d364 d33d e4ca 6cbe 7759 283d

layers.2.bias f4 [8]
0.2810149 -0.1632129 0.06131847 0.20173606 0.25709453 0.0071863686 -0.050655212 -0.042097807
00000000: 2fe1 8f3e 4821 27be 1329 7b3d e693 4e3e
00000010: e5a1 833e a17b eb3b d77b 4fbd c06e 2cbd

layers.4.weight f4 [4, 8]
0.3267619 0.30633485 0.1276599 -0.22902471 -0.18104663 0.27190688 -0.35535452 -0.22034262
0.17624937 -0.016752983 0.38360712 0.5696837 -0.59130716 0.5955251 0.61259127 -0.123460166
-0.051389832 -0.32900816 -0.08134037 -0.43343812 0.38567454 0.19699039 0.13040504 0.12788202
-0.65062517 -0.22144815 -0.48226953 -0.19962141 0.20784117 -0.23513041 -0.08999462 0.23673053
00000000: 564d a73e ecd7 9c3e 47b9 023e 7485 6abe
00000010: 4a64 39be 6137 8b3e 07f1 b5be 7fa1 61be
00000020: b77a 343e 8d3d 89bc 2768 c43e cad6 113f
00000030: e85f 17bf 5574 183f c8d2 1c3f afd8 fcbd
00000040: 257e 52bd c273 a8be c895 a6bd 9aeb ddbe
00000050: 2277 c53e d9b7 493e e688 053e 81f3 023e
00000060: 5f8f 26bf 4ec3 62be 08ec f6be 8e69 4cbe
00000070: 51d4 543e 07c6 70be 194f b8bd 7d69 723e

layers.4.bias f4 [4]
-0.44937894 -3.620018e-05 -0.08855701 0.5475961
00000000: ff14 e6be a6d5 17b8 615d b5bd 422f 0c3f

layers.6.weight f4 [1, 4]
0.44722167 -0.5336671 0.80371153 1.0228438
00000000: 3dfa e43e 689e 08bf 0ac0 4d3f 8cec 823f
