supply_rate_model.onnx (onnx, 7205 bytes, 7 tensors)

layers.0.weight f4 [16, 83]
-0.03256929 0.083304875 0.056232322 0.020149212 0.084298916 0.10538766 0.08402075 -0.11102179
0.16936733 0.14648385 0.03027449 -0.024460023 0.09662363 -0.054830834 -0.07206338 0.26766434
0.03574606 0.12774582 -0.0812836 0.025424149 0.07635281 -0.017276656 -0.037623778 -0.17247573
0.03778298 -0.017430613 0.06365583 0.12558544 -0.0043897354 0.12559949 0.11385108 0.11279727
-0.08650323 0.010345236 0.1750018 -0.17637202 0.05594243 -0.014617862 0.09197574 0.037115064
-0.10240819 -0.1267013 0.09855409 -0.0013332716 -0.09305018 -0.021227656 -0.09240714 -0.10070673
-0.011931874 0.036184918 0.09634776 -0.07944153 0.05420371 -0.048325244 0.025356425 -0.17625678
-0.09176439 0.057426874 0.013695191 -0.002653703 0.049688272 0.01079856 0.035510823 -0.17750418
-0.14952347 -0.08150795 -0.029647714 -0.18263537 -0.06469467 -0.2510436 0.002208763 -0.07006976
-0.049805857 -0.066394895 -0.13685341 -0.024207992 -0.0017602163 -0.064809844 0.09603817 0.2018355
0.42907116 0.32068127 0.034242757 0.041089624 -0.03446748 0.12425046 0.22770447 -0.1586423
-0.019581733 -0.062999904 -0.057871785 -0.0030350264 0.1394936 -0.07141856 -0.0725933 0.017889455
0.278801 0.12338556 -0.1543131 0.05844127 0.043510597 -0.03891292 0.21400267 0.06375143
-0.18324763 -0.105363056 0.06534484 -0.036554027 0.03273051 -0.01749215 -0.021415329 0.058381777
-0.049498722 -0.0985393 0.06090362 -0.113349006 0.06435969 0.039398436 -0.11061908 0.02696211
-0.07886185 0.03261033 -0.08245721 0.0009118357 -0.09133182 -0.027316337 0.14818166 -0.046832778
0.044605833 -0.029046264 0.090114966 0.09249917 0.066553935 -0.24257587 -0.14217694 -0.13048254
-0.100420915 0.11255664 0.19894813 0.0047419025 -0.08824852 -0.009183587 -0.09257369 -0.09677195
-0.050680295 -0.091564685 0.16002901 0.13652697 -0.03527157 -0.04414866 0.07607765 0.034222025
0.035904653 0.012841021 0.09031892 -0.061552584 -0.050460655 -0.003033372 0.00032855413 0.05771482
0.27966028 0.24653655 -0.04577808 -0.13824476 -0.06171694 0.059924293 0.15761855 0.05579625
0.09059561 -0.012096575 -0.15533492 0.2382112 0.3661903 0.13618465 0.15106305 -0.014543608
0.09016361 0.08140479 0.088663295 -0.0017276243 0.067745574 0.085595205 0.008022371 0.10599496
-0.07038988 0.06585081 -0.037104398 0.024359098 0.121852085 -0.10237958 0.011126647 0.020426836
0.039062683 0.05980586 0.036090385 0.07466147 0.04721615 -0.07212327 -0.07034566 0.01998576
0.15264733 -0.06088365 0.0053687515 -0.025293136 0.0985466 -0.048603836 -0.048298273 -0.037131652
0.11282056 -0.013609878 0.01970464 0.04722779 0.016406557 -0.105552375 0.116607174 -0.12427085
0.04866403 0.0018138301 -0.060347944 -0.07875292 -0.021642381 -0.31596828 -0.06696946 0.09248423
0.017335813 -0.08594212 -0.050879564 -0.011162877 -0.027620079 0.02491063 -0.059553675 -0.1673687
-0.1087332 -0.0053560673 -0.10026322 -0.094790265 0.08054035 -0.078213364 -0.020837907 0.03977229
-0.036239337 0.013161338 -0.009300403 0.06213254 0.021262076 0.20064914 0.2470763 0.15865496
0.32571632 -0.010116686 0.040381886 0.028202754 -0.06389595 -0.13504918 0.04228808 0.22681852
00000000: 6067 05bd bf9b aa3d dd53 663d f60f a53c
00000010: e9a4 ac3d 7cd5 d73d 1213 ac3d 645f e3bd
00000020: a16e 2d3e ddff 153e 3502 f83c 6360 c8bc
00000030: 9ce2 c53d 4c96 60bd f795 93bd 4d0b 893e
00000040: 766a 123d cdcf 023e 0478 a6bd 4e46 d03c
00000050: dd5e 9c3d c687 8dbc 641b 1abd 7a9d 30be
00000060: 53c2 1a3d a5ca 8ebc fd5d 823d 7899 003e
00000070: c5d7 8fbb 279d 003e c12a e93d 4102 e73d
00000080: 9b28 b1bd 117f 293c ac33 333e de9a 34be
00000090: e423 653d c27f 6fbc c75d bc3d f705 183d
000000a0: 63bb d1bd fcbd 01be bad6 c93d 2cc1 aeba
000000b0: 1891 bebd 9fe5 adbc f43f bdbd 543f cebd
000000c0: e87d 43bc a336 143d f951 c53d 3eb2 a2bd
000000d0: b604 5e3d b1f0 45bd 47b8 cf3c a87c 34be
000000e0: f8ee bbbd 7138 6b3d cb61 603c c0e9 2dbb
000000f0: ee85 4b3d 72ec 303c cc73 113d a8c3 35be
00000100: ae1c 19be a4ed a6bd c3df f2bc c404 3bbe
00000110: a47e 84bd c988 80be e5c0 103b bc80 8fbd
00000120: 3a01 4cbd 0cfa 87bd 4d23 0cbe d74f c6bc
00000130: 0fb7 e6ba 06bb 84bd a9af c43d f7ad 4e3e
00000140: 37af db3e 5630 a43e 2242 0c3d 984d 283d
00000150: c62d 0dbd 0677 fe3d 5c2b 693e 2173 22be
00000160: df69 a0bc 1806 81bd f70a 6dbd 4be7 46bb
00000170: 69d7 0e3e e543 92bd ccab 94bd e88c 923c
00000180: 01bf 8e3e 92b1 fc3d 4104 1ebe 1d60 6f3d
00000190: 2b38 323d 2763 1fbd 8423 5b3e 1c90 823d
000001a0: 44a5 3bbe 96c8 d7bd 84d3 853d adb9 15bd
000001b0: 6d10 063d b34b 8fbc 336f afbc bb21 6f3d
000001c0: 2cbf 4abd f9ce c9bd 1376 793d 8623 e8bd
000001d0: 03cf 833d 4160 213d 428c e2bd a5df dc3c
000001e0: 5282 a1bd 6992 053d 53df a8bd 4208 6f3a
000001f0: 2d0c bbbd 83c6 dfbc efbc 173e bad3 3fbd
00000200: 9bb4 363d 6ef2 edbc 328e b83d 3470 bd3d
00000210: 6e4d 883d cf65 78be d596 11be 379d 05be
00000220: 7ba9 cdbd 1884 e63d 0fb9 4b3e f661 9b3b
00000230: a4bb b4bd c176 16bc 4697 bdbd 5f30 c6bd
00000240: 2496 4fbd 4486 bbbd a5de 233e bacd 0b3e
00000250: ec78 10bd 3ad5 34bd 99ce 9b3d 652c 0c3d
00000260: c210 133d 2563 523c 20f9 b83d 901e 7cbd
00000270: d5af 4ebd 8acb 46bb ca41 ac39 6066 6c3d
00000280: a22f 8f3e 1474 7c3e cc81 3bbd 0990 0dbe
00000290: e7ca 7cbd 2d73 753d c266 213e 9c8a 643d
000002a0: 318a b93d b730 46bc 1e10 1fbe a3ed 733e
000002b0: 4c7d bb3e fd73 0b3e 46b0 1a3e 5048 6ebc
000002c0: b3a7 b83d 8eb7 a63d 1a95 b53d 7471 e2ba
000002d0: 31be 8a3d 8a4c af3d 4370 033c e313 d93d
000002e0: 9228 90bd cadc 863d c8fa 17bd bb8c c73c
000002f0: 968d f93d 63ac d1bd 8a4c 363c 2e56 a73c
00000300: 3100 203d fdf6 743d 83d3 133d 1de8 983d
00000310: b965 413d 5db5 93bd 6311 90bd 2db9 a33c
00000320: 954f 1c3e 2261 79bd 5aec af3b 8d33 cfbc
00000330: cdd2 c93d d114 47bd 69d4 45bd 5c17 18bd
00000340: 770e e73d f7fb 5ebc a06b a13c ed71 413d
00000350: 0b67 863c d82b d8bd becf ee3d b781 febd
00000360: ef53 473d 0abe ed3a 682f 77bd 3649 a1bd
00000370: 5d4b b1bc 98c6 a1be 4927 89bd 5f68 bd3d
00000380: d603 8e3c 6c02 b0bd 1767 50bd 80e4 36bc
00000390: 8143 e2bc 6111 cc3c 8eee 73bd b362 2bbe
000003a0: 83af debd f381 afbb ce56 cdbd 6621 c2bd
000003b0: 57f2 a43d 542e a0bd 42b4 aabc 45e8 223d
000003c0: b36f 14bd a7a2 573c b860 18bc b17e 7e3d
000003d0: ce2d ae3c f876 4d3e 9201 7d3e 7276 223e
000003e0: 4ac4 a63e 75c0 25bc 7a67 253d 7609 e73c
000003f0: e1db 82bd 554a 0abe 4436 2d3d 1d43 683e

layers.0.bias f4 [16]
0.1652221 0.0011759431 0.26049215 0.10243477 0.14820133 0.102442294 0.11881377 0.057433285
0.042352628 0.1342158 0.25740144 -0.035816163 0.18722959 0.17685775 0.22031255 0.102130555
00000000: fb2f 293e 1a22 9a3a 3a5f 853e 52c9 d13d
00000010: 17c2 173e 44cd d13d a254 f33d 2a3f 6b3d
00000020: f379 2d3d de6f 093e 1fca 833e f8b3 12bd
00000030: 1db9 3f3e 331a 353e 9d99 613e d329 d13d

layers.2.weight f4 [8, 16]
0.2218295 0.35153463 -0.032429244 0.21418229 -0.029223243 0.10003539 -0.31558335 -0.17813845
-0.110703915 -0.18099034 0.15841198 -0.043675046 -0.102893196 -0.107061476 0.091977835 0.02600885
0.1580054 -0.40214157 0.30911583 0.36328298 -0.11356285 -0.16611853 -0.29578248 -0.26187795
-0.21481633 0.066430226 -0.014563731 0.08094137 0.17345667 0.3380474 0.32658002 0.18545313
0.054587953 -0.20536238 -0.13233997 -0.21155539 0.41771334 0.44937807 0.39479724 0.26216352
0.23063818 0.10551842 -0.085873 -0.2166925 0.17629813 -0.0214476 0.050191857 -0.058278188
-0.36614606 -0.08405989 -0.11934503 0.1342476 0.1297963 -0.064178124 0.02044961 0.32737124
0.4823166 0.11317328 -0.007525286 -0.13458307 -0.2777003 -0.22352082 -0.23813665 -0.47829223
0.28787085 -0.33537197 0.40451533 0.28226665 -0.21368925 -0.08715129 -0.14609054 -0.20296955
-0.07682688 0.37687856 0.19498228 0.060965516 0.45395222 0.24670719 0.44862705 0.17803526
0.33443165 -0.1639583 0.18032458 0.1896455 0.035218857 -0.13244814 -0.16376798 0.09610547
0.26237378 0.4544896 0.45118716 0.50285244 0.38657996 0.12947156 0.0016692554 0.32333285
0.35259867 -0.14693637 0.2235119 0.39864117 -0.111701116 -0.041477926 -0.30182523 -0.07390992
-0.27176383 0.014608769 0.21096323 0.03789083 0.030438188 0.16398461 0.08199714 0.29460058
0.07813291 -0.21733317 0.24627547 0.19147532 0.37640274 0.23353927 0.03827393 0.44846225
0.124117635 0.3513656 0.004801529 -0.017939296 0.25135627 0.017794263 0.02303366 0.0746852
00000000: 4627 633e 59fc b33e 87d4 04bd 9a52 5b3e
00000010: 9565 efbc 5bdf cc3d 2494 a1be ed69 36be
00000020: bcb8 e2bd 8855 39be c036 223e 9be4 32bd
00000030: abb9 d2bd 0c43 dbbd e05e bc3d 8310 d53c
00000040: 2bcc 213e 80e5 cdbe 6e44 9e3e 3a00 ba3e
00000050: a493 e8bd fa1a 2abe cd70 97be de14 86be
00000060: d0f8 5bbe 920c 883d b79c 6ebc 97c4 a53d
00000070: a09e 313e 8c14 ad3e 7f35 a73e 6de7 3d3e
00000080: 9e97 5f3d 844a 52be 2184 07be faa1 58be
00000090: 86de d53e e214 e63e dd22 ca3e 4c3a 863e
000000a0: 6a2c 6c3e 0b1a d83d 2fde afbd a4e4 5dbe
000000b0: 7f87 343e e1b2 afbc fa95 4d3d 1cb5 6ebd
000000c0: 7f77 bbbe 9727 acbd 2b6b f4bd 3478 093e
000000d0: 52e9 043e d26f 83bd f185 a73c 349d a73e
000000e0: 34f2 f63e 65c7 e73d ad96 f6bb 25d0 09be
000000f0: bc2e 8ebe a4e2 64be 18da 73be b8e2 f4be
00000100: cf63 933e e0b5 abbe a21c cf3e 4185 903e
00000110: 5bd1 5abe 607c b2bd c298 15be 40d7 4fbe
00000120: 6957 9dbd 3af6 c03e 6fa9 473e fab6 793d
00000130: 6d6c e83e cfa0 7c3e 72b2 e53e e04e 363e
00000140: a03a ab3e afe4 27be 02a7 383e 6e32 423e
00000150: a641 103d 7ca0 07be cbb2 27be f2d2 c43d
00000160: db55 863e dcb2 e83e 0102 e73e f0ba 003f
00000170: cfed c53e 3194 043e ebca da3a e28b a53e
00000180: d087 b43e 7d76 16be 4ee0 643e b21a cc3e
00000190: 8ec3 e4bd c2e4 29bd d688 9abe 165e 97bd
000001a0: a124 8bbe 9e59 6f3c bf06 583e 6a33 1b3d
000001b0: 8259 f93c 95eb 273e 1eee a73d e3d5 963e
000001c0: 2604 a03d 968c 5ebe a32f 7c3e 1b12 443e
000001d0: dcb7 c03e eb24 6f3e 20c5 1c3d d89c e53e
000001e0: 6331 fe3d 31e6 b33e 2556 9d3b 6ef5 92bc
000001f0: c5b1 803e 46c5 913c 16b1 bc3c 8ef4 983d

layers.2.bias f4 [8]
0.26978058 0.06485797 -0.046529453 -0.0151672885 0.26439214 0.09175363 -0.044924058 0.16206533
00000000: ae20 8a3e 41d4 843d ab95 3ebd 3880 78bc
00000010: 685e 873e 54e9 bb3d 4a02 38bd 74f4 253e

layers.4.weight f4 [4, 8]
-0.36476624 0.036655184 0.5162676 -0.030616071 -0.40780285 -0.39857563 0.0968138 0.014739801
-0.29720217 -0.13332501 0.6302934 0.5034669 0.06148835 0.04225536 -0.34798342 0.305064
0.027917262 0.2768867 -0.03493814 -0.024827778 0.61063564 0.44771367 0.26017132 0.25391474
-0.54867744 -0.19526197 0.51469404 0.40412062 -0.144727 0.22923341 -0.36681893 0.48716623
00000000: a4c2 babe bf23 163d 1d2a 043f 8ece fabc
00000010: 89cb d0be 1b12 ccbe 5046 c63d 357f 713c
00000020: e22a 98be 5a86 08be e95a 213f 35e3 003f
00000030: 35db 7b3d f513 2d3d e22a b2be 5931 9c3e
00000040: beb2 e43c 18c4 8d3e 4c1b 0fbd a063 cbbc
00000050: 9e52 1c3f ba3a e53e 2d35 853e 1d01 823e
00000060: 2076 0cbf c1f2 47be fdc2 033f e6e8 ce3e
00000070: 5133 14be 2abc 6a3e b1cf bbbe da6d f93e

layers.4.bias f4 [4]
-0.14464165 0.08910526 -0.037922226 -0.12238268
00000000: f11c 14be d27c b63d 5654 1bbd c5a3 fabd

layers.6.weight f4 [1, 4]
-0.50428265 -0.67865133 0.34434155 -0.7544615
00000000: ab18 01bf 18bc 2dbf 894d b03e 6424 41bf
